domain_gcn_model.pth (torch, 35821 bytes, 14 tensors)

conv1.bias f4 [32]
000000 db ef 04 3f b7 5f 11 bf 0e 49 16 3f f9 3e 90 be
       0.5192849 -0.56786674 0.5870522 -0.28173044
000010 ed 39 56 bf cd 80 26 bf bc 02 d7 be 8a df c1 be
       -0.8368214 -0.65040284 -0.41994274 -0.3786586
000020 d4 46 8d 3f bc 43 1b 3f c5 a2 23 3d 2f 86 29 be
       1.103724 0.6065023 0.03995015 -0.16555093
000030 2e ec bd be 07 0f d0 3f d5 2c 2d bf 6a e9 1e 3f
       -0.37094253 1.6254586 -0.67646533 0.6207491
000040 48 15 3b be 7f b2 cf 3e 75 ca 12 bf b9 5f 43 3f
       -0.18269837 0.4056587 -0.57340175 0.76317936
000050 18 9d 82 bf 8d e1 c1 3f f3 91 59 bf 94 f5 55 3f
       -1.0204191 1.5146958 -0.84988326 0.8357785
000060 f1 83 b7 3f fc eb 36 3e 85 2b 76 be 51 b1 4d 3f
       1.433714 0.17863458 -0.24040039 0.8034869
000070 43 3f 07 3e 1d 09 b8 3e 3f d6 43 3f 9d 73 07 3f
       0.13207726 0.35944453 0.7649879 0.52910787

conv1.lin.weight f4 [32, 3]
000000 8b 07 6b bc 0d 00 c5 bd ce df a0 3e c1 de 57 3e
       -0.01434506 -0.0961915 0.3142075 0.21081068
000010 89 9a 87 be 45 46 06 3e 58 d7 3d be 08 3f e8 bd
       -0.26485088 0.13112743 -0.18539178 -0.11340147
000020 06 6e b2 3e 24 13 4b bf ba 60 0a 3e cb d9 0c 3e
       0.34849566 -0.7932608 0.13513461 0.13754956
000030 0b c6 17 be ef dc 42 bb 27 f0 89 3d 77 f2 90 be
       -0.14821641 -0.0029733737 0.067352585 -0.28309986
000040 8b d8 4b be 0e 3b 38 be b4 90 f6 3d 42 68 44 3f
       -0.19906823 -0.17991278 0.12039319 0.76721585
000050 31 09 46 3d b1 b3 86 be 3b 89 70 bd 0c bc 0b 3e
       0.04834861 -0.2630897 -0.058724623 0.13645953
000060 9b 02 80 be c6 45 8c be 66 06 a3 3d bf ee 3a 3d
       -0.25001988 -0.27396983 0.07960205 0.045637842
000070 5a 28 87 be e3 f2 28 3e 52 6f 52 bd bd 71 1d 3e
       -0.26397973 0.16498904 -0.051375695 0.15375419
000080 02 36 18 bc 18 90 3d 3d 46 49 d6 3e da 67 90 be
       -0.00929022 0.046279997 0.41852778 -0.28204232
000090 23 cc 59 3e 9e 3b cd 3d 48 84 a5 3d e5 dd 99 be
       0.21269278 0.10021137 0.08081871 -0.30052105
0000a0 9e f0 0c 3e b1 03 32 3d d0 26 9f bd 77 53 65 be
       0.13763663 0.04346055 -0.07771075 -0.2239512
0000b0 44 c5 38 be f1 a8 2a be f4 49 17 3d ac 1f ab 3d
       -0.18044001 -0.16666009 0.03693576 0.0835565
0000c0 14 7d 77 bd 33 d0 a1 bc 91 7b 05 3d 3f b1 b0 3d
       -0.06042202 -0.019752597 0.032588545 0.08627557
0000d0 82 77 40 be 49 fa 9d 3e 1a 76 19 be dd 5d 9c bd
       -0.18795589 0.30855015 -0.14986458 -0.076350905
0000e0 ba 5f 9e 3d ac 74 d6 bd 48 57 9c bd c7 c3 47 bd
       0.07733102 -0.10471472 -0.07633835 -0.048770692
0000f0 10 b7 c9 bc a1 a6 38 be 24 ac 49 be c9 76 06 3f
       -0.024623424 -0.18032314 -0.19694573 0.52525
000100 a5 3d fe be 9f de 8d bd 1a d5 44 be 3e b1 11 be
       -0.49656406 -0.06927227 -0.19221917 -0.14227769
000110 62 08 4f bd 78 e8 9a be 62 e5 8b bd 9f 35 ea 3d
       -0.050545104 -0.30255485 -0.06830861 0.11436009
000120 e0 c2 a6 3e b7 12 2d 3f 97 c1 13 3d 88 2d 91 be
       0.32570553 0.6760668 0.036073294 -0.2835505
000130 74 eb 96 be fa ac 3b 3e 92 fe e4 3d 0d 6d 99 3e
       -0.2947651 0.18327704 0.11181368 0.29966012
000140 0b b4 82 be 23 31 dd 3d e7 c3 00 3f 36 71 0f 3e
       -0.25527987 0.10800388 0.50298923 0.1400803
000150 54 db b9 bc 8d 78 b7 be ad c3 3d be 59 c2 c9 be
       -0.022687592 -0.3583416 -0.18531676 -0.39406088
000160 a3 b2 49 3e 6e ea 1e be 9f a0 0d bd a9 42 86 3e
       0.19697051 -0.15519115 -0.03457701 0.26222733
000170 f5 a8 45 be 71 05 94 be 00 ea 89 be 6c 9c 51 3e
       -0.19302733 -0.289104 -0.2693634 0.20469826

conv2.bias f4 [32]
000000 3a 84 c7 be 51 02 12 bf c3 26 4f be 7f 3f 97 be
       -0.38968068 -0.57034785 -0.2022963 -0.2954063
000010 cc 87 b4 3f 84 89 15 be a0 cf fb be df de db be
       1.4103942 -0.1460324 -0.49181843 -0.42943475
000020 3f 04 c3 be 12 8b 36 3c 0f 32 bc be 82 0c 1f 3d
       -0.38089177 0.011141555 -0.36756942 0.038830288
000030 09 aa 59 3e bd 38 a7 be c4 de 80 be 55 bb 23 3d
       0.2125627 -0.32660475 -0.25169957 0.039973576
000040 0e e9 d8 be d4 fd 8e be 13 f8 c4 3d 64 c7 87 be
       -0.42365307 -0.2792803 0.09617629 -0.2651931
000050 33 b4 44 be 73 78 89 be 42 ee 77 be db cd c3 be
       -0.19209366 -0.26849708 -0.24211982 -0.38242993
000060 d3 42 2d bf 83 2e 1e 3f 71 a9 99 be a3 cb 39 be
       -0.6768009 0.6178972 -0.30012086 -0.18144087
000070 4b 8d e4 bd e2 78 36 be f5 1b 8a be 0e 45 90 be
       -0.11159762 -0.1781955 -0.26974455 -0.28177685

conv2.lin.weight f4 [32, 32]
000000 c0 c5 52 bd b7 1a 4b bd d3 ca d9 3d 01 0c 44 3d
       -0.05145812 -0.049586024 0.10634389 0.04786301
000010 dd 41 22 3e 03 43 c9 be f9 12 80 be 1a df ab bd
       0.15845437 -0.39308938 -0.25014475 -0.083921626
000020 fe 85 d4 be 22 71 36 be a9 32 62 3d af e1 d9 bd
       -0.41508478 -0.17816594 0.055224095 -0.10638749
000030 a5 51 8c bd 79 2e df be ba f1 87 be f3 c2 00 3e
       -0.0685151 -0.43590143 -0.2655161 0.12574367
000040 c3 52 82 be 62 8a a3 be b5 ea 38 be c2 97 18 be
       -0.25453767 -0.31941515 -0.18058284 -0.14901641
000050 1a 2a 87 3d ab 89 2b be c6 f6 bb be 21 4b 7a 3d
       0.06599827 -0.16751735 -0.3671171 0.061106805
000060 d5 26 d8 be e6 4b 95 3e a5 81 80 be f2 6f b0 be
       -0.42217126 0.29159468 -0.2509891 -0.34460407
000070 61 41 0c be 0d 08 a0 bd 61 09 92 be 18 97 8a be
       -0.13696815 -0.078140356 -0.2852278 -0.270684
000080 51 9c cd be 1c 1c 45 3c 0e 71 92 3d ac 9a 79 3a
       -0.40158322 0.012030628 0.0715047 0.0009521644
000090 46 1a 3c be 5c 93 df 3c f1 38 0c 3b ac 29 02 3e
       -0.18369398 0.027291946 0.0021396244 0.12711209
0000a0 19 b2 90 be 3b c0 8e 3d de af 68 3e db 9a 46 be
       -0.28260878 0.06970259 0.22723338 -0.1939501
0000b0 55 a3 dd 3c 71 e4 86 be 0e 21 b2 be 1c b3 38 bd
       0.027055422 -0.26346162 -0.34790844 -0.045092687
0000c0 f9 88 12 3c 29 cf 61 3d b7 1d 96 be 9b 33 05 bf
       0.00894379 0.055129204 -0.29319546 -0.5203187
0000d0 12 53 c5 3c c1 bc d7 be 01 8b 65 3d c3 35 7e be
       0.024087463 -0.42136195 0.056040768 -0.24825196
0000e0 05 16 0f bf 5b 77 eb be 11 bc cd bd 12 1e bf 3c
       -0.55892974 -0.45989498 -0.100456364 0.023329768
0000f0 95 ea b4 be 60 25 80 3c 47 a9 b6 be 1c 35 70 3c
       -0.35335222 0.015642822 -0.35676023 0.0146611
000100 ab 9f 34 be dc cd 9b 3c 83 61 e2 3d 40 d3 77 be
       -0.17639033 0.01901906 0.11053755 -0.24201679
000110 53 cb 32 be ab 2c 1a be b3 62 5c be d7 45 4f be
       -0.17460375 -0.15056102 -0.21522026 -0.20241486
000120 f1 32 16 be 7e 18 f8 be a8 8f 6c be b1 94 3f 3e
       -0.1466787 -0.48456186 -0.23101676 0.18709065
000130 b5 14 77 be 58 23 e4 3d 20 97 63 3d 7f 56 85 be
       -0.24128993 0.11139554 0.055564046 -0.26042554
000140 5f 32 c5 be ac 24 f8 bd 54 35 b8 be 6f 2c ad 3d
       -0.38514993 -0.121163696 -0.35978186 0.08455741
000150 e5 57 c7 be 9c ae 0e be 86 ab 6c be 6d db 8d be
       -0.38934246 -0.13933796 -0.23112306 -0.2770647
000160 f9 94 08 3d 2b d6 b9 be 42 87 b5 be 09 47 08 3d
       0.033345196 -0.3629621 -0.35454756 0.03327087
000170 08 53 ac bc 28 5d 11 be c3 7a 92 be 25 6d 73 be
       -0.021035686 -0.14195693 -0.28609285 -0.23772104
000180 b0 ed d9 be 75 08 7b 3e d5 23 71 3d ce a0 99 3d
       -0.42564154 0.24514945 0.058872063 0.07501374
000190 07 40 a9 3b e0 50 a5 be df 18 14 3d 0f c4 44 3e
       0.0051651034 -0.32288265 0.03615653 0.19215415
0001a0 df 6f 82 be 34 9c c3 bd 3b 16 e0 3c 6b 16 3e 3e
       -0.25475976 -0.09551278 0.02735435 0.1856324
0001b0 82 b3 cb 3d 3e 50 39 be 8c c3 30 be 0f 92 d9 3c
       0.09946348 -0.18097016 -0.17262095 0.026558904
0001c0 5e 27 d9 3d 4f 79 57 3c 22 d7 e8 bd d0 2d 78 bd
       0.10603212 0.013151481 -0.11369158 -0.060590565
0001d0 63 e9 6d bd ba 76 63 be 76 b3 f3 3c 61 52 09 bd
       -0.058083903 -0.2221326 0.02974866 -0.03352583
0001e0 5c 97 36 be ff 05 e7 3c a9 67 ae be 1d bb 9c bc
       -0.17831177 0.028201101 -0.3406346 -0.019132191
0001f0 5d d3 49 3c 02 0e ce be ca cb c0 be ad c6 b5 be
       0.012318459 -0.40245062 -0.3765548 -0.3550314
000200 41 a8 de be 0c 2b 4d 3d a8 25 10 bf 02 c3 00 bf
       -0.43487743 0.05008988 -0.5630746 -0.5029756
000210 b3 5c 8d bd b1 89 8b be 51 82 5d be 5d 29 58 bd
       -0.069024466 -0.27253488 -0.21631743 -0.052773822
000220 c4 bf 89 bd a6 5a 7e 3c 18 9c 09 be 69 fc 2a be
       -0.067260295 0.015524542 -0.13438451 -0.1669785
000230 56 59 9a be 8d db 86 be 55 03 3c be d4 e8 cb be
       -0.30146283 -0.2633938 -0.18360646 -0.3982607
000240 65 bd 22 be 34 66 50 bd fa 5c 40 bd 9c 99 2d bc
       -0.15892561 -0.05087872 -0.04696367 -0.010595705
000250 10 a4 84 bd 22 32 7c be 11 45 fb be ef ad a1 be
       -0.06476605 -0.24628499 -0.4907613 -0.31578013
000260 cd 92 ad bd 9d 64 97 be eb f1 1a be 67 c5 3c be
       -0.08475266 -0.2956895 -0.15131347 -0.18434678
000270 27 31 57 be d6 d9 5c bd 4d c5 33 bd 22 f9 91 be
       -0.21014844 -0.053918682 -0.043889333 -0.28510386
000280 b2 29 8f be 4b 28 96 be 25 1c 37 be 33 8d ab 3d
       -0.27961498 -0.29327616 -0.1788183 0.08376541
000290 71 23 66 be 40 79 ee 3d e9 5e ca be 60 ac 95 be
       -0.22474457 0.1164422 -0.39525536 -0.29233074
0002a0 b5 e2 d7 be c9 7e 57 be b8 fc 9d be 9d a6 7f 3d
       -0.4216515 -0.21044458 -0.30856872 0.062414754
0002b0 44 49 99 3d 15 18 97 bd 70 9a 06 be 7e 7c 99 be
       0.074846774 -0.0737764 -0.1314485 -0.29977793
0002c0 fd c2 ac 3d bf 62 b5 3d e9 ea 34 3e a7 44 d0 be
       0.084356286 0.08856725 0.17667736 -0.40677378
0002d0 33 84 e9 3c 03 e7 85 be b9 0d ba be 75 ad 46 be
       0.02850542 -0.2615281 -0.36338595 -0.19402106
0002e0 48 c3 95 bd 79 e0 de bd c5 07 00 be 36 db ab 3d
       -0.073126376 -0.108826585 -0.12502964 0.083914205
0002f0 b6 1d cf bc b8 a2 75 bb c3 6f 80 be 76 50 19 be
       -0.025282722 -0.003748102 -0.25085267 -0.149721
000300 9d a9 4f be 17 d2 52 be 5a e1 dd bd c0 ba b3 bc
       -0.20279546 -0.20587955 -0.10833998 -0.021939635
000310 4e 59 82 bc d0 a3 b9 be b3 e2 7a be af 49 7a bd
       -0.015911724 -0.36257792 -0.24500541 -0.061105426
000320 b2 de c8 bd 53 27 6d be 0b ff 2a be 83 fc 0a 3c
       -0.09808101 -0.23159532 -0.16698854 0.008483055
000330 5a 67 0c be 5a 90 c7 be 24 cc 31 be c3 71 03 bd
       -0.137113 -0.3897732 -0.1736303 -0.032090914
000340 5c 0f 83 be c3 88 92 bc c6 55 88 be 13 a8 8d be
       -0.25597656 -0.017887479 -0.2662794 -0.27667293
000350 86 81 b6 3d a4 d2 e1 bd a6 06 05 3e 8f 92 e6 be
       0.089114234 -0.11026505 0.12990817 -0.4503369
000360 b4 45 fa bd 34 06 61 be 13 99 fe be 23 d6 66 be
       -0.12220326 -0.21975023 -0.4972616 -0.22542624
000370 8d 73 a2 bc 2d 7d 99 bb 1a 47 4d be bd 26 a9 bd
       -0.01983049 -0.0046841116 -0.20046654 -0.08259342
000380 77 8e e9 3a 63 9f e5 3d 9d 8f 89 bd b5 7f 64 be
       0.0017818947 0.11212041 -0.06716845 -0.22314341
000390 cf 9f 88 bd fd 9e c1 bd b9 d9 63 bb 83 e9 35 3d
       -0.06671106 -0.09454153 -0.0034767224 0.044412147
0003a0 43 ba 2e be d7 e0 03 be 3f a2 58 be 0e e5 b4 be
       -0.1706324 -0.12878738 -0.21155642 -0.35331005
0003b0 ec b5 9a 3c 69 fd af bc 3b a4 6a bd 3b 7d fc bd
       0.018885575 -0.02148314 -0.05728553 -0.12328573
0003c0 24 e8 b2 bd ac fa cc 3a de e3 85 be c6 86 27 be
       -0.087356836 0.0015638671 -0.2615041 -0.16360006
0003d0 86 b9 87 be 2e 27 55 be ef ed 43 be 25 b4 ae be
       -0.2650873 -0.20815727 -0.19133733 -0.34121814
0003e0 af c6 8f be 52 ab 03 be d6 96 9f be df 8b c9 be
       -0.2808127 -0.12858322 -0.31169766 -0.39364526
0003f0 b8 76 02 be df 61 94 be 4b 37 8f be 0a d1 bb bd
       -0.127406 -0.2898092 -0.27971873 -0.091707304

conv3.bias f4 [32]
000000 85 0d c5 be 83 fb bb be a7 91 47 be 61 64 b1 3f
       -0.38486877 -0.36715326 -0.19489156 1.3858758
000010 9c 47 17 bd 8a 91 a5 3f 38 e7 9b be 04 2f 52 be
       -0.036933526 1.293504 -0.30449843 -0.20525748
000020 cc 46 06 bf 59 35 c8 be 6e 3f c1 bd bf 92 23 3f
       -0.5245178 -0.391032 -0.094359264 0.6389579
000030 27 36 aa 3f 8e 41 42 3e 5f ce 19 a9 a3 8a c6 be
       1.3297776 0.1897032 -3.4151823e-14 -0.38777646
000040 46 1b 14 bf 27 ef 2b be 19 45 51 be b9 53 66 be
       -0.57854116 -0.16790448 -0.20436515 -0.22492875
000050 57 9b 8b be 14 8a 35 be 81 e6 33 3f 49 e9 21 bf
       -0.27266952 -0.17728454 0.70273596 -0.6324659
000060 d7 c5 5e be 8b a2 af be 4b 75 c3 be 0f 89 2b bb
       -0.21755157 -0.34303698 -0.38175425 -0.0026174223
000070 ee f3 27 bf 42 95 91 be db 6f cc be 56 9d 50 3f
       -0.6560658 -0.28434187 -0.3992909 0.81490076

conv3.lin.weight f4 [32, 32]
000000 88 b0 97 be b3 97 a7 be 33 08 83 3e 88 e2 36 be
       -0.2962687 -0.32732925 0.25592193 -0.17859852
000010 bd 97 48 be e2 df cb be 98 8f 26 3d 76 79 4f be
       -0.19589134 -0.39819247 0.040664285 -0.20261177
000020 00 90 48 bd 97 4b 35 be 49 29 b8 3d 7e d8 26 bd
       -0.048965454 -0.17704616 0.089922495 -0.040733807
000030 e6 e5 86 be 1d 93 97 be 5d aa 13 bb ce 81 a8 be
       -0.26347274 -0.29604426 -0.0022531964 -0.32911533
000040 bc ca 49 be de 0f b6 be 3c af 2e 3d d4 a4 d0 bd
       -0.19706243 -0.3555898 0.042647585 -0.101876885
000050 8f f4 95 bd 46 36 45 bd 3f 52 92 be bc 5f ee bd
       -0.073220365 -0.048147462 -0.28578374 -0.11639354
000060 1e a8 99 be a9 d7 8e be c5 63 d3 be ee 6c e3 be
       -0.30011076 -0.2789891 -0.41287056 -0.44419044
000070 5a d5 5a be 7e ab 97 b9 49 78 60 be ea 8b 5f bb
       -0.2137045 -0.00028928736 -0.21920885 -0.0034110495
000080 fe 0f e0 3d cc 09 19 3e ba fc c2 bc a9 d3 43 3e
       0.1094055 0.14945143 -0.02380215 0.1912371
000090 a1 cb 09 bf a1 36 fb 3d c3 b2 71 be 53 52 49 3e
       -0.5382634 0.12266279 -0.23603348 0.1966031
0000a0 e2 d7 6e be b0 6b 2e be 6c 99 04 3e db 2e 0e be
       -0.2332454 -0.17033267 0.12949151 -0.13885061
0000b0 e7 af e5 be 46 c6 ca 3d 60 2a 8f 3d 0d 0b 61 be
       -0.44860765 0.09901099 0.06990504 -0.21976872
0000c0 32 ee 1d 3e 44 22 55 bd 04 50 bc 3b 5f c4 0a be
       0.15422896 -0.05203463 0.0057468433 -0.13551472
0000d0 b4 7f ae 3d a7 3f 5c 3c 3d c4 3f 3e 01 12 99 bc
       0.08520451 0.01344291 0.18727203 -0.018685343
0000e0 dd 75 cb bd 3e ea b0 be f5 16 55 be 8a 29 53 be
       -0.0993459 -0.34553713 -0.20809539 -0.20621315
0000f0 46 25 fb bd c8 79 6f be 00 a3 90 be 6b db 3a 3d
       -0.12262969 -0.233863 -0.2824936 0.04561941
000100 b9 d4 2a 3e b5 9e 8e bd 58 49 14 bf ab 59 cf bd
       0.1668271 -0.06963865 -0.57924414 -0.10124525
000110 40 38 5e be 67 8d d8 bd 37 ab 1e 3e 20 21 09 be
       -0.21701145 -0.10573845 0.15495001 -0.13391542
000120 a8 3b 3e 3e fa f3 e1 bd 1d f1 98 3b bd bd 86 be
       0.18577445 -0.11032863 0.004667415 -0.26316634
000130 1a 71 0c be 0b 1c 01 3e fd 95 23 be 36 9b 5b be
       -0.1371502 0.12608354 -0.15975185 -0.21445927
000140 b6 01 88 3e fb 8f e0 3d 34 66 a9 bd b1 34 87 3e
       0.26563805 0.10964962 -0.08271447 0.26407388
000150 a8 4f 82 3e f3 ce 9c 3d 42 83 da bd 1f 03 b0 bd
       0.25451398 0.0765666 -0.10669567 -0.08594345
000160 5d 2f 08 3d 55 e4 18 be c5 69 8b be 67 af e3 bc
       0.033248294 -0.14930852 -0.27229133 -0.0277936
000170 68 f1 62 3e 87 84 11 be 58 0b 41 3e 5a f5 a4 bc
       0.22162402 -0.14210711 0.18851984 -0.020136524
000180 37 81 61 3d 6d eb 15 be 30 f3 92 bd 0b 97 80 3d
       0.05505487 -0.14640589 -0.071752906 0.06278809
000190 8d 3a ca bc 4c e8 95 be c5 9a b8 bc a4 87 92 3e
       -0.024686122 -0.2927879 -0.022534737 0.2861911
0001a0 8e 5b 81 3d 57 11 2f 3e c1 84 cb 3d 03 d6 d1 3d
       0.06316291 0.17096458 0.0993743 0.102458976
0001b0 d1 d4 01 3e 29 a3 37 be 7d 2e 45 3d 2b 5a 11 be
       0.1267884 -0.17933334 0.048140038 -0.14194553
0001c0 1c 71 f1 bc 08 4e 9c ba 39 9f 9d 3b f3 39 ad 3e
       -0.02947288 -0.0011925111 0.0048102406 0.33833274
0001d0 c9 6e 3e be bd 08 41 be 7c b7 08 be 54 81 83 3e
       -0.18596949 -0.1885099 -0.13351244 0.25684607
0001e0 0e a7 fa 3d f8 71 88 bd 19 18 a6 3e 56 50 1b be
       0.122388944 -0.06662363 0.3244026 -0.15167364
0001f0 ff 75 9c 3e fb fa 65 3b 4a 7f 50 3e 22 82 59 3c
       0.30558774 0.0035092223 0.20361057 0.013275655
000200 91 f9 90 bd ae 0b 16 3e 7e 7b 36 3e c1 73 59 3d
       -0.07078851 0.14652893 0.17820546 0.053088907
000210 62 be 22 be dd 66 3c be bd b6 e5 3d bd 0a 3a 3d
       -0.15892938 -0.18398614 0.11216495 0.045420397
000220 a1 d7 a3 bd 9b 32 8a be 60 e3 86 bb d0 9f 4c bd
       -0.08000112 -0.26991734 -0.0041164607 -0.049957097
000230 db c0 98 be b0 6e 5d 3e 13 20 29 be 9e 66 f8 bd
       -0.29834637 0.21624255 -0.16516142 -0.12128948
000240 c2 4b 85 be e4 13 ac bd 77 b0 92 be eb e6 56 3e
       -0.2603436 -0.08402231 -0.28650257 0.20986526
000250 f1 23 fe 3e eb 00 01 3e d6 4f 98 3c 3a b4 c4 bc
       0.49636796 0.12598006 0.018592756 -0.02401172
000260 74 c5 11 be 37 9d 02 be c4 c0 34 be ed 21 00 3d
       -0.14235479 -0.12755285 -0.17651659 0.031282354
000270 53 13 96 3e 52 87 b0 3e ff 05 b0 be 2b 38 96 be
       0.29311618 0.3447824 -0.34379575 -0.29339728
000280 97 e3 04 be 5f 45 5f 3e c5 2c c7 3d 3a e8 6b be
       -0.12977444 0.21803807 0.09725336 -0.23037806
000290 1e a1 8f 3b c5 62 71 be e4 31 4c be 4c ee 0a 3d
       0.0043832203 -0.23572834 -0.19940907 0.033918664
0002a0 12 63 b9 3c bc 1e 5f 3e 17 9f 91 be 5a 13 c1 3b
       0.022630248 0.21789068 -0.28441688 0.0058921995
0002b0 af dc b1 3d dd 19 de 3d 0d 72 31 3d 69 07 f2 3c
       0.0868467 0.10844777 0.043321658 0.029544549
0002c0 65 16 85 3c a3 8a 7b be 08 18 a4 3d 37 65 17 be
       0.01624603 -0.24564604 0.08012396 -0.14784704
0002d0 89 7a cf 3c 8e 00 3e be 88 3a 19 3e 21 db 2e be
       0.025326984 -0.18554899 0.14963734 -0.17075779
0002e0 ab bf 9a be 8b f0 0f be eb 93 5e be 4a 88 ec 3d
       -0.30224356 -0.14056604 -0.21736114 0.115494326
0002f0 35 d6 93 be 89 a6 c9 bd 42 11 7f 3d dd 4b ba be
       -0.28874364 -0.09846217 0.062272318 -0.36386004
000300 7e a3 60 bd ce 84 90 3e 6a c5 51 be 68 03 09 be
       -0.05484342 0.28226322 -0.20485464 -0.13380206
000310 67 39 41 be ee 32 81 be bb f9 eb 3d fb b7 3c be
       -0.18869554 -0.2523417 0.11522242 -0.18429558
000320 83 0e 66 3e e7 f1 39 be 09 d1 08 3e 0f 1d 88 be
       0.22466473 -0.18158685 0.1336099 -0.2658467
000330 41 4d ca be 03 10 c4 bd 7b b2 28 bd 79 b0 84 be
       -0.39512065 -0.095733665 -0.041185837 -0.25915888
000340 e6 e4 26 be 0f d9 74 be e3 1f bb be fb 79 1f 3e
       -0.16298255 -0.23910926 -0.36547765 0.15573876
000350 47 87 b3 3d ff 0b e1 bd 8c 4e 4d 3e 7f 5a 26 be
       0.087660365 -0.10988616 0.20049495 -0.16245459
000360 fe bb a2 bd 82 32 08 3e 8e 53 9c be b5 ea 76 be
       -0.07946013 0.13300517 -0.30532497 -0.24112971
000370 7e 61 41 3e a9 60 ce be dd 67 28 3c 4c 56 67 3c
       0.18884847 -0.4030812 0.010278669 0.014119696
000380 76 96 b6 bd 07 07 7e bd 8e 8f 02 3d 77 c1 21 3a
       -0.08915417 -0.06201842 0.031875186 0.0006170491
000390 bc f7 87 be 98 63 14 be ae b5 be bc 7f 44 1d 3d
       -0.26556194 -0.14491117 -0.023279991 0.0383954
0003a0 90 a5 7f be 3e a4 43 3e 67 fb 22 be 70 80 36 be
       -0.24965501 0.19105622 -0.15916215 -0.17822433
0003b0 6b 08 6c be ca c6 52 bd 40 be a8 3c ed 93 2f be
       -0.23050086 -0.05145911 0.02059853 -0.17146273
0003c0 b5 c4 0b 3e 07 e1 b7 be 7a 2d 8f 3e 7f b8 27 3e
       0.13649257 -0.3591387 0.27964383 0.16378973
0003d0 db 16 3c 3d 81 3f 2f 3e d7 7d 52 3c 52 7a b3 bd
       0.045920234 0.17114069 0.012847385 -0.08763565
0003e0 07 75 5d bd 98 60 c1 be 66 95 ef 3e c9 20 14 bd
       -0.054066684 -0.37769008 0.4679367 -0.03616408
0003f0 bc 9b 02 3e 4a 12 8a 3c d7 d9 79 bd 3a 87 ea 3d
       0.1275472 0.016854424 -0.060998764 0.11451574

conv4.bias f4 [10]
000000 bb 3c 95 be cc a5 b8 bc 3f bd 09 3d 58 19 33 bf
       -0.29147896 -0.022539996 0.033627745 -0.69960546
000010 9b 13 9c bf 85 37 01 be 48 b7 aa be b4 3a b8 bd
       -1.2193483 -0.12618835 -0.33342957 -0.08995572
000020 32 10 0a be 80 60 c7 bd
       -0.1348274 -0.09735203

conv4.lin.weight f4 [10, 32]
000000 ea 5b 40 3e c2 51 a6 be 6a 63 ae be 69 30 81 3d
       0.18785062 -0.3248425 -0.34060222 0.06308062
000010 b2 60 43 be 5f 71 96 bc 09 8e 80 3e 05 9f ae be
       -0.19079855 -0.018364606 0.25108364 -0.34105697
000020 12 b9 65 3e 4e 2a d5 3d 7a 5d bd bc 34 c3 10 3b
       0.2243388 0.104084596 -0.023115862 0.0022089006
000030 a4 11 36 be 26 ab 5d 3d c4 ec c4 3d 90 6f a6 3e
       -0.17780167 0.054118298 0.09615472 0.3250699
000040 50 e0 cb be 6c c1 f0 3d 99 28 85 bd 4d 5b 29 be
       -0.39819574 0.11755642 -0.06501884 -0.16538735
000050 eb 8a 9c 3e 0c 38 9b be 99 57 d9 be 9f f0 cf bd
       0.30574736 -0.30316198 -0.42449644 -0.10153317
000060 d8 28 b1 be 69 75 25 3e c9 f7 bd 3e 49 a8 3c 3d
       -0.34601474 0.1615807 0.37103108 0.046058927
000070 8f 63 0e bf 53 4b a5 be e5 9e 8e 3e 51 0b d0 be
       -0.55620664 -0.3228403 0.27855602 -0.40633634
000080 f8 1c b7 bd 54 03 9e 3d 37 3f 07 be 2b 63 8a 3d
       -0.08941072 0.077154785 -0.13207708 0.06757196
000090 84 3e 16 3e 5b 47 9b 3d 24 4e 86 be 6a 77 c7 be
       0.14672285 0.07581969 -0.26231492 -0.38958293
0000a0 de 56 bd bd 17 54 8c 3e 06 09 b8 bd 12 a2 fc bd
       -0.09245084 0.27407905 -0.08986096 -0.123356
0000b0 f7 06 89 be dc f3 5c be 7c a8 9c bd 1c 05 54 be
       -0.26763126 -0.215774 -0.07649323 -0.20705074
0000c0 05 76 a1 3d dd c9 aa bc 09 48 8b 3e 82 88 f4 3d
       0.078838386 -0.020848209 0.27203396 0.11940099
0000d0 58 2e 59 3e da f6 32 3e ed d4 18 3d 5e e5 8c be
       0.21209085 0.17476979 0.037312437 -0.27518743
0000e0 ec b2 8d be d3 e7 29 3d ce 4e 73 be 6b 90 c7 3d
       -0.2767557 0.04148085 -0.2376053 0.097443424
0000f0 5d b6 e8 bc d4 6b be bd ae d5 2e 3e f7 81 bb bc
       -0.02840727 -0.0929791 0.170737 -0.02288912
000100 f7 02 42 bd 68 93 62 3d 1c 87 e0 bd 4f c2 a4 be
       -0.04736611 0.05531636 -0.1096327 -0.32179496
000110 c7 c6 b6 3e a1 10 76 be eb a8 9e be 6b 4a ae 3d
       0.3569853 -0.24029781 -0.3098825 0.08510288
000120 7c 9c 40 3b 93 50 8a 3e f7 73 25 3e c3 6f 25 be
       0.0029390147 0.27014598 0.16157518 -0.16155915
000130 a7 5b d3 be 40 5d 96 3e 85 02 4d be 87 e3 2a 3e
       -0.41280863 0.2936802 -0.20020492 0.16688357
000140 a5 38 97 3d 08 15 8c 3e e4 73 77 3e 25 e3 3a 3e
       0.07383851 0.27359796 0.24165303 0.18250711
000150 80 f7 31 be a4 0e 0c 3d d5 8e 45 3e b7 3e d4 bd
       -0.1737957 0.03419365 0.19292767 -0.103635244
000160 9c b9 9e 3e 4e b1 0d 3e 5d 43 80 3e 3c 01 1c 3e
       0.31000984 0.13837168 0.25051394 0.15234846
000170 db 9a 8b 3e b3 3b a2 3e a6 98 6d be 67 11 9b 3c
       0.27266583 0.31686172 -0.23202762 0.018929197
000180 9f 3b 1d 3c 0c 2f 3c be 2f dc f7 be 66 a4 11 bd
       0.009596734 -0.18377322 -0.48410174 -0.035557173
000190 a8 0e c2 be 34 e7 e1 3d 57 22 80 be d0 7c cc 3d
       -0.37901807 0.110304266 -0.250262 0.099847436
0001a0 b4 b0 44 3e d9 0c b6 be 4e c3 17 be f8 d0 0f be
       0.19208032 -0.35556677 -0.14820597 -0.14044559
0001b0 ce 56 83 bd 14 85 d2 be d5 8b 9b 3c 67 51 54 3b
       -0.06413041 -0.41117156 0.018987576 0.0032397152
0001c0 e9 7c c8 be e3 44 7a be 8d c7 f0 bd bc ff 01 3d
       -0.391578 -0.2444034 -0.11756811 0.031738028
0001d0 b0 cd 58 3e cf 04 1b be 0e 06 3f be e6 ed 18 bd
       0.21172214 -0.15138553 -0.18654653 -0.037336253
0001e0 9a 73 d7 bd 75 bf 19 bd ff d1 92 bd f8 62 89 be
       -0.10520096 -0.037536103 -0.0716896 -0.2683332
0001f0 03 33 cb 3d 56 35 9a be ec a2 70 be c9 c2 1d be
       0.09921839 -0.30118817 -0.2349965 -0.15406336
000200 a5 94 21 3d f0 fd b2 3a 64 03 f5 3c f5 16 0a 3f
       0.0394484 0.0013656002 0.029908843 0.5394128
000210 f9 3e b4 bb b1 b4 12 3f a1 1f 84 bd 28 02 cf 3d
       -0.005500671 0.57306963 -0.06451345 0.10107833
000220 ca ee 78 bc ac f5 d4 3d 72 7f 19 bd 7a 8a 94 3e
       -0.0151936505 0.10398421 -0.037475057 0.290119
000230 ca 2b 00 3f a7 cb e4 3d 52 76 13 a9 c5 b6 4a 3c
       0.50066817 0.11171656 -3.2743183e-14 0.012372677
000240 28 7b a2 bd 8c d3 34 3d 99 a1 70 3d bd 93 d8 3d
       -0.079336464 0.04414706 0.05874786 0.10575054
000250 74 20 bd bd 46 45 d7 3d 5a 3f 8f 3e 73 63 a7 3d
       -0.092347056 0.1051126 0.2797802 0.08173265
000260 0a b6 b9 bb 7a 16 1d be 74 a8 09 be 8c b0 55 bb
       -0.0056674527 -0.15340605 -0.13443166 -0.003260645
000270 1c dd 78 be ce 75 87 3d 9e 6f 01 be ac 41 9e 3e
       -0.24303097 0.06614266 -0.12640235 0.3090948
000280 b6 a4 7c 3e 00 de 8a 3e 31 52 f3 bd e6 13 3e be
       0.24672207 0.27122498 -0.11880911 -0.18562278
000290 2b c3 c4 3e 96 36 ac be d5 e6 6b be 9a ea 82 3e
       0.3843015 -0.33635396 -0.23037274 0.25569612
0002a0 cb 5d 44 3e 6e bd 79 3e f1 27 80 be f5 11 ef bd
       0.19176404 0.24388668 -0.25030473 -0.11673347
0002b0 c0 d7 2a be 84 ed 76 be ea 2c b7 bd 9e 77 6a be
       -0.16683865 -0.24114043 -0.089441136 -0.22897193
0002c0 44 ed 45 3e 5b b0 55 be 86 01 ee 3d f5 f7 c2 3d
       0.19328791 -0.20868056 0.11621384 0.0951995
0002d0 ec 15 98 3e ee eb 33 3e 78 12 12 3e 2d ef 39 3e
       0.29704225 0.17570469 0.14264858 0.18157645
0002e0 6e 85 79 be 47 da 8c be 7e 05 16 3c 99 30 18 3d
       -0.24367306 -0.27510282 0.009156583 0.03715572
0002f0 67 a8 5e 3c f7 6e ed bb 1e 04 8e bd d0 98 8c 3d
       0.013589955 -0.007245894 -0.06934379 0.06865084
000300 d3 6e a1 bc 87 5e a2 3d c7 3a b4 3e 0d 9f 6e be
       -0.019706165 0.07928186 0.35201094 -0.2330286
000310 8a 9a 14 3e 1d 82 13 3e a0 95 08 3e c1 e8 2b 3e
       0.14512077 0.14405103 0.13338327 0.16788007
000320 23 10 da bd ec 68 ff be 70 b5 8a be d7 9d a0 3c
       -0.10647609 -0.49884737 -0.2709155 0.019606514
000330 04 ef ff 3d 73 ca cc 3d 15 dd ad 3e cb 25 8a be
       0.124967605 0.099995516 0.33957735 -0.2698196
000340 fe 43 6d 3e 6a 6f af be 77 91 43 be ad 2a d2 3d
       0.23170468 -0.3426469 -0.19098459 0.10262046
000350 03 e5 3d 3e ea 85 26 3e 62 b1 68 bd b3 db 91 be
       0.18544392 0.16262022 -0.05680979 -0.2848793
000360 7e 5f 24 3e 77 7c 9c be fe 14 49 3e b1 14 16 bb
       0.16052052 -0.3056371 0.19636914 -0.0022900517
000370 00 d7 c5 be ef e0 97 be bf 98 7e be 9e f2 cb be
       -0.38640594 -0.29663798 -0.24862956 -0.3983354
000380 9d bf 84 3e a5 1e 47 3e f5 39 75 bd 21 f8 39 be
       0.2592744 0.19445284 -0.059869725 -0.1816106
000390 66 d9 a3 bd 33 48 88 bc d2 c2 7c be e3 fa 33 bc
       -0.0800045 -0.01663599 -0.24683693 -0.010985109
0003a0 af 79 85 be 35 cf 88 3e ba 71 e5 bc ac 51 93 3d
       -0.260694 0.26720586 -0.02800833 0.07193312
0003b0 7b 87 6d be d2 fc 3d 3e d2 22 55 3c e4 35 5b 3e
       -0.23196213 0.18553475 0.01300879 0.21407276
0003c0 5f e0 01 3e 4e 0d 84 bc 43 c2 25 be 98 f1 a0 be
       0.12683247 -0.016119625 -0.16187386 -0.3143432
0003d0 b1 09 a1 3e f0 cd 99 3e e7 d1 64 bd 15 70 07 bf
       0.31452706 0.3003993 -0.05586424 -0.529054
0003e0 67 04 20 be 45 c7 5e 3e 1e 29 f6 3d 42 3f fd 3d
       -0.1562668 0.21755703 0.12019561 0.12365581
0003f0 d1 14 86 bd e5 2b f5 3b 4b 78 77 3d fe 13 8a be
       -0.06546939 0.0074820393 0.060417455 -0.26968378

mlp.0.weight f4 [64, 10]
000000 4f 54 8f be 92 7d 7c 3e cf 01 6a bd 90 fa 10 3d
       -0.2799401 0.24657276 -0.05713063 0.035395205
000010 da a1 3d be 04 02 fc bc 36 1d 48 be 3b 39 77 bd
       -0.18518773 -0.03076268 -0.19542393 -0.060357314
000020 aa d7 1a 3d 66 80 f7 3d 23 67 50 3c 94 16 f3 bc
       0.03780333 0.12085037 0.012719902 -0.029673852
000030 82 cf 9c bd d7 b5 12 bd 03 de 53 3e b6 5e ca bd
       -0.076567665 -0.035817947 0.2069016 -0.09881346
000040 1c 24 0a 3e 96 cb 04 bd cf c2 62 be 2a 96 a4 3e
       0.13490337 -0.032420717 -0.22144626 0.32145816
000050 eb 7f ee 3d fa cf 16 be 3e 1a 7a be 33 79 45 be
       0.11645492 -0.14727774 -0.24424073 -0.19284515
000060 58 0e 93 3c 05 dc 83 bc b1 2d 85 3e 5c 7e c0 3d
       0.017951176 -0.016096124 0.26011422 0.09399101
000070 72 10 09 3e 8c 1d 72 be 4a a6 f4 3d 7c 1f 3c be
       0.1338518 -0.23644084 0.119457796 -0.18371385
000080 99 8c f5 3d 4a c8 df bd 51 1c 00 bd 3f 3f 1d bc
       0.119897075 -0.10926874 -0.031277005 -0.009597599
000090 3e 27 8a bd c0 89 61 bd ca d8 aa 3c 56 5d 89 be
       -0.06745766 -0.05506301 0.020855326 -0.26829022
0000a0 e1 b1 eb bd 21 bb 00 3e 4e 05 f6 3d 0f 80 19 3e
       -0.11508537 0.12571384 0.120127305 0.14990257
0000b0 7a 90 8f be 06 8e e2 bd a4 40 92 3e c1 e6 32 bd
       -0.28039914 -0.11062245 0.28564942 -0.043677095
0000c0 1e e9 85 3d 27 2b db 3d 14 48 9f be 01 4f 67 be
       0.06538604 0.1070159 -0.3110968 -0.22588731
0000d0 b4 dc 03 3c be db 96 be 90 0d 09 bf 84 e7 97 bb
       0.008048225 -0.29464525 -0.5353632 -0.004635753
0000e0 b7 34 b2 3d ba e1 ac 3d f9 34 ef bd b7 de ce 3d
       0.08701461 0.084414914 -0.116800256 0.10101073
0000f0 6d 27 6c be 51 69 8d be bf 2b 77 bc 3a 7e 8b be
       -0.23061915 -0.27619413 -0.0150861135 -0.2724474
000100 42 4d 5d bd fa 08 be be aa 62 8f 3c 67 61 44 be
       -0.054028757 -0.37116224 0.017503101 -0.19177781
000110 d9 e7 98 3d 9d 47 9c be 8f 24 0c be ee 8c 85 bd
       0.074660964 -0.30523387 -0.13685821 -0.06521021
000120 1f 80 5f 3e 94 36 89 bd 6d ec 3f be bd f2 36 3e
       0.21826218 -0.06699863 -0.18742533 0.17866035
000130 ab 43 0a be 48 80 3b 3e f4 15 9f 3d b1 bd 99 bd
       -0.13502376 0.18310654 0.07767859 -0.07506884
000140 93 b0 cb 3c d5 ec 63 3d 74 e2 32 3e bb e0 c0 3c
       0.02486447 0.055645783 0.17469198 0.02354466
000150 f3 a3 c1 be bc fe 32 bd c2 46 92 3d 22 c4 85 be
       -0.37820396 -0.043699965 0.07142402 -0.261262
000160 87 a2 b0 be 2f 52 7a 3e 9a 0b d2 be 04 09 86 be
       -0.34499 0.24445413 -0.41024476 -0.26178753
000170 f8 48 ed 3b 3d 08 58 3d b0 07 fd bd 82 c3 22 3d
       0.0072413646 0.05274223 -0.12354982 0.039737232
000180 22 d4 49 3e b3 83 e0 3b 5d 00 ef bd 36 2d a7 3e
       0.19709828 0.0068516373 -0.11669991 0.3265168
000190 7e aa 01 3d 4b 74 cc 3d 53 71 f5 3c 70 c5 9d bd
       0.031656735 0.099831186 0.029961264 -0.07703674
0001a0 88 09 9b 3e 29 95 ec 3d f1 f4 67 bd 73 c7 99 be
       0.3028071 0.115518875 -0.05663008 -0.3003498
0001b0 04 ab d6 bd ff fa bc bc 0e 99 85 bd 53 11 22 3d
       -0.104818374 -0.023068903 -0.065233335 0.039567303
0001c0 e0 9f e5 bd 78 00 48 be 27 30 14 3f 90 27 88 3e
       -0.11212134 -0.19531429 0.57885975 0.26592684
0001d0 cd 89 a2 be 55 cb 11 3d d0 7e d7 bd ab 3d e0 bd
       -0.3174576 0.035594303 -0.105222344 -0.10949262
0001e0 a1 7a 11 be 0f 3a d6 3d 1e d6 e5 bd 51 7c 01 bd
       -0.14206935 0.104602925 -0.1122248 -0.031612698
0001f0 43 44 00 be e6 e1 fb 3d 00 8b 33 bd f8 78 15 be
       -0.1252604 0.12298946 -0.043833733 -0.14596927
000200 9d e5 07 bd 5a bc 66 3e c1 7f 0e be 4a 11 96 3d
       -0.03317796 0.22532788 -0.13915922 0.073275164
000210 33 99 a4 be 36 95 3a be 53 7a 4c 3c b7 8f 9d bd
       -0.32148132 -0.18220982 0.012480336 -0.07693427
000220 0b 4f b8 be 10 b4 4a bc 80 7d 13 bd 32 e4 3c 3e
       -0.35997805 -0.012372032 -0.036008358 0.18446425
000230 48 07 c5 be a6 d3 3a bd bb 00 c2 bc c5 84 91 3c
       -0.38482118 -0.045612 -0.023681989 0.017763505
000240 5c 44 af be 32 fd 41 3e 7f 4c 87 bd 56 42 20 3e
       -0.34231842 0.18944243 -0.06606387 0.15650305
000250 72 93 a9 3e 01 3a 04 be 73 a0 6e be 98 f0 69 3d
       0.33120304 -0.12912752 -0.23303394 0.057114214
000260 ca b6 74 be f8 25 0f 3e 22 85 13 be 61 b7 78 be
       -0.23897853 0.13979328 -0.14406255 -0.24288704
000270 e7 82 78 be 51 a2 2e be 2b fb 17 bd b2 56 c1 be
       -0.24268685 -0.17054106 -0.037104767 -0.37761456
000280 3c a4 f7 bd 25 a0 85 bd 2a b3 81 be 67 c7 39 be
       -0.12091872 -0.06524686 -0.25332004 -0.18142472
000290 d9 3b b8 3c 32 f8 36 be 3e 83 0a 3e 4a 1a 0a bd
       0.022489475 -0.17868116 0.13526627 -0.033716477
0002a0 bb 7a 11 3e 0c 5e 3a 3e 6a 5c 50 3d 72 37 96 be
       0.14206974 0.18199939 0.050869383 -0.29339176
0002b0 96 0e ba bd 45 86 04 be c1 75 0d be 91 76 99 bb
       -0.09084813 -0.12941845 -0.13814451 -0.0046833237
0002c0 48 0e b2 be bd 05 0f be 02 9a 76 3e 99 59 38 bd
       -0.3477652 -0.13967033 0.24082187 -0.045007322
0002d0 20 9f 9e bd 3b 0e 99 be b0 59 22 3e 82 ee 94 be
       -0.077451944 -0.2989367 0.15854526 -0.29088217
0002e0 b5 58 5d be 26 26 06 3e c1 25 8d bd 7a 29 b7 3d
       -0.2161587 0.1310049 -0.068919666 0.08943458
0002f0 3c e9 92 3e 74 5f 56 3e 82 67 0a be a8 da 33 3e
       0.2869357 0.2093485 -0.13516048 0.1756388
000300 60 2a 35 3e e7 14 85 3e 71 f1 0c bf 76 1b 6c be
       0.17691946 0.2599251 -0.5505591 -0.2305735
000310 ca 3f 6c be f3 70 f0 bc 66 96 b3 bd 72 de 3d be
       -0.23071209 -0.029350733 -0.087689206 -0.18541887
000320 0e ec e8 3d b1 b2 08 3d cb f7 05 be 0c 40 fb 3d
       0.11373149 0.03337354 -0.13082807 0.12268075
000330 e8 d8 1f be b8 0c c0 be d0 7c d5 3d aa dc 65 bd
       -0.15610087 -0.37509704 0.10424197 -0.056118645
000340 3f 1a 3f be db 92 91 be 10 f3 3a 3e 9d ac 9d 3e
       -0.18662356 -0.28432354 0.18256783 0.30795756
000350 bd 1d 84 bd 15 d6 58 be 0a d3 d8 3c 4f bf af 3e
       -0.064509846 -0.21175416 0.026467819 0.34325644
000360 33 7e 7b 3e ed 68 7b 3c c8 ad 34 3e a7 db a3 3d
       0.2455986 0.0153448405 0.17644417 0.0800088
000370 a5 03 70 3c ea 84 8a 3e 75 a8 ba be 8a c5 14 3d
       0.014649306 0.2705453 -0.36456648 0.0363212
000380 0e 7c b2 bd 4a f2 61 3d 2c 02 97 be f6 28 03 be
       -0.08715068 0.055162705 -0.29493845 -0.12808594
000390 cb 4f 85 bb 9e 63 55 3e 1c f9 48 bd 55 99 52 3e
       -0.00406835 0.20838782 -0.049065694 0.20566304
0003a0 7b 57 01 3e 4a 68 1d bd 36 e4 34 3e 4c 34 79 bd
       0.12631027 -0.038429536 0.1766518 -0.06084089
0003b0 62 5b e1 3d bb fd fe 3d 5e aa 31 be 10 3e 13 be
       0.11003758 0.12450739 -0.17350146 -0.14379144
0003c0 50 dd a5 bd db ea 9b be 93 bd 18 bd 05 df dc 3d
       -0.08098853 -0.30452618 -0.037290167 0.10784725
0003d0 3e 5c d3 be b6 84 17 be db f6 1f be f7 51 29 3e
       -0.41281313 -0.14796719 -0.15621512 0.16535173
0003e0 04 8b 16 be 32 8b 67 be a3 cf 8e 3d 99 65 5b 3e
       -0.14701468 -0.22611693 0.06973197 0.21425475
0003f0 69 ff b0 be 12 cc 87 3d 35 3a 9a be e7 bc bd 3b
       -0.34569862 0.0663072 -0.30122533 0.005790341

mlp.0.bias f4 [64]
000000 55 4b 78 be 7a bd ae be 2e 84 a0 be f8 0b a3 be
       -0.24247487 -0.34128934 -0.31350845 -0.3184507
000010 4b e6 52 bc bf 48 28 3f b3 2e 0d bf 1b 02 34 be
       -0.012872289 0.65736 -0.5514938 -0.17578928
000020 4c c5 cf be e7 b0 f4 bd cb 76 9a be da 27 0e 3e
       -0.40580213 -0.11947804 -0.30168757 0.1388239
000030 8d 50 78 3c d3 02 d0 bd 32 0c 46 3e 5f 12 42 bc
       0.015155924 -0.10156789 0.1934059 -0.0118452
000040 d0 5f 8d be f2 3d c6 3d 9f 07 cd bd 76 ec 3b 3f
       -0.27612162 0.09679784 -0.10011219 0.73407686
000050 ef 80 0b be 6f 57 98 be 69 e6 ad be ec 15 e5 be
       -0.13623403 -0.29754207 -0.33964851 -0.44743288
000060 00 20 5f 3e 32 11 77 be 18 67 6e 3c 31 0d 96 bd
       0.21789551 -0.24127653 0.014550947 -0.07326735
000070 89 d2 47 3d c4 a6 b7 be e5 d7 ed bd ef 26 b0 be
       0.048784766 -0.3586942 -0.11613444 -0.34404704
000080 c1 77 7a bf 56 41 c4 be f0 94 63 be 32 0d e4 bb
       -0.9783898 -0.38331097 -0.22224784 -0.006959581
000090 fe 3a d6 3c 02 c6 1e be bf d1 59 be 3b c8 9b be
       0.026151177 -0.15505221 -0.21271418 -0.304262
0000a0 c9 b2 fb be 0b 59 7a 3f 0e e0 2a be 68 6d 87 3f
       -0.4915984 0.9779212 -0.16687033 1.0580263
0000b0 0d c9 8b 3f 5e ed 3f be a1 46 17 bc ca ba 65 be
       1.0920731 -0.18742892 -0.009233148 -0.22434536
0000c0 a0 6c 6f bf 63 45 14 be f2 9f 40 bf a7 95 58 3f
       -0.93525124 -0.14479594 -0.7524406 0.8460335
0000d0 58 c2 c1 be 2b c2 55 be 2d 63 4e 3d ee ae 56 bf
       -0.37843585 -0.2087485 0.05038755 -0.8386067
0000e0 d4 d6 58 bf 34 1a 26 3d e5 de ac 3d 07 bd f4 bc
       -0.847028 0.040552333 0.08440951 -0.029875292
0000f0 b7 e9 94 bd f7 aa a5 be 80 88 42 3e a2 cb 04 be
       -0.0727114 -0.32356998 0.18997383 -0.12968305

mlp.2.weight f4 [64, 64]
000000 c6 c2 a7 bd 80 66 cb 3b f6 37 97 bd 20 01 dd bd
       -0.08191447 0.0062072873 -0.073837206 -0.1079123
000010 2e 52 d1 3d a0 c2 85 bc 1c a1 c8 bd 60 6b 14 bc
       0.10220753 -0.016328156 -0.09796354 -0.009058803
000020 24 83 8a 3d 72 95 a2 bd d0 51 3f be 14 9d 6a bd
       0.06763294 -0.07938661 -0.18683553 -0.057278708
000030 e2 65 ba bd 60 bb c4 bd a8 22 c3 bd c0 12 7f bc
       -0.09101464 -0.096060514 -0.095280945 -0.015568435
000040 1c de ab 3d e0 16 a4 3b 68 1e a1 bd a0 82 35 bc
       0.083919734 0.0050076097 -0.07867128 -0.011078507
000050 3e 9b 8f bd 40 82 9a bc a4 bd f4 bd 48 92 88 bc
       -0.07012032 -0.018860936 -0.119502336 -0.016671315
000060 78 1d 68 bd 86 4b dc 3d 04 9e bf bd 80 4b 26 bc
       -0.05666873 0.107565925 -0.09356311 -0.010149837
000070 94 ca 23 bd 4c 3c 4c 3d 70 32 e1 3c 6c 48 91 bd
       -0.039988115 0.04986219 0.02748987 -0.070938915
000080 b4 58 61 3d b0 87 bc bc c4 7f 6d 3d 10 74 c0 bd
       0.055016235 -0.02301392 0.057983175 -0.09397137
000090 f6 96 f5 3d 76 57 ac bd e0 08 0b bc 82 5a ec 3d
       0.11991684 -0.08415119 -0.008486003 0.115407005
0000a0 cb f3 52 be 42 cf 8e 3d 20 9c e3 bc a0 f4 c9 bd
       -0.20600812 0.06973125 -0.027784407 -0.09861112
0000b0 2b 9f 71 bd 20 df 03 bc a0 2b 65 3d 70 47 0f bc
       -0.058989685 -0.008048803 0.055949807 -0.008745059
0000c0 f8 a3 ab bd 50 84 7b 3c d4 44 f2 bd 5c 71 c8 3d
       -0.08380884 0.01535137 -0.11829534 0.097872466
0000d0 be df eb bd c0 bd 3c bc b6 f1 94 bd c0 2a 82 3d
       -0.11517285 -0.011519849 -0.07272665 0.0635581
0000e0 c8 a4 63 bd 14 2c ee bd a8 bd e6 bd 44 5e 85 bd
       -0.05557707 -0.11629501 -0.11266643 -0.0651212
0000f0 20 f4 27 bd 48 4a 1f bd 60 e0 97 bc d4 07 e4 bd
       -0.0410043 -0.0388892 -0.018539608 -0.111343056
000100 c0 f2 31 bb 6a d7 6b bd c5 d6 0f be 5f 55 c5 3c
       -0.0027152747 -0.05757848 -0.14046772 0.02408856
000110 18 fc 91 3c 1e 29 8e bc e1 fd e1 bd c6 c4 9f bd
       0.017820403 -0.01735359 -0.11034752 -0.078012034
000120 ea 65 f5 bd 2d 06 f5 bd 54 db 5a 3c bf 16 18 be
       -0.11982329 -0.119640686 0.013357956 -0.14852427
000130 11 a2 b7 3d ec c0 b4 bb 4b 17 00 3d 60 8b 74 bc
       0.089664586 -0.005516162 0.031272214 -0.014925808
000140 58 11 4d 3d b4 79 c6 bd 00 1e ab bc bd 4a f6 bd
       0.05006537 -0.09691182 -0.020888329 -0.12025974
000150 b6 22 9f 3d b6 4f 19 be 48 5c 9b bd e8 4d 9f 3d
       0.077702925 -0.14971814 -0.075859606 0.07778531
000160 52 9a d3 bd c8 1f 44 bd 35 57 16 be 48 96 e1 bc
       -0.10332169 -0.04788187 -0.14681704 -0.02753748
000170 01 49 9c bd 49 77 a7 bd e2 e4 a9 3d 0b 37 a0 3b
       -0.07631112 -0.08177049 0.08295609 0.004889374
000180 ab ac d3 bc c0 cd 49 3d e0 77 c8 ba e4 49 19 be
       -0.02583917 0.049268484 -0.0015294515 -0.14969593
000190 c9 bb 9a 3c 92 bd b7 3d 48 8b 7c bd e4 6c c0 bd
       0.018888371 0.089717045 -0.061656266 -0.09395769
0001a0 1c 90 d9 3c 04 8e 9d bd a6 94 fa 3d a4 c5 e8 bb
       0.026557975 -0.07693103 0.12235384 -0.0071036387
0001b0 90 cb 58 bd 52 9c aa 3d dc 2a bf bd f3 4b 12 3d
       -0.052928507 0.08330597 -0.09334347 0.035716962
0001c0 60 c4 b0 bd 25 3e 15 be d6 a3 e3 3c 75 90 71 bd
       -0.086312056 -0.14574488 0.027788084 -0.058975656
0001d0 0a 74 95 3d 0d 11 f7 3c 7b 0a b9 3d 9c f1 2b 3c
       0.07297523 0.030159498 0.09035202 0.010494616
0001e0 25 c5 ba bd 4f cd 2b 3d 7c 14 bd bd 9f 3a bc 3d
       -0.091196336 0.041943844 -0.09232423 0.091908686
0001f0 79 80 17 be 79 6f ae 3d 47 9b 84 bd ad 3e 85 bc
       -0.14795102 0.085173555 -0.06474929 -0.016265238
000200 e6 70 08 3d ee 71 d3 bd 67 6e f2 bd 86 6f 51 bd
       0.033310793 -0.10324465 -0.11837464 -0.051131748
000210 13 c1 cd 3a 8e 48 00 3c 8e e6 ef 3d 15 c8 75 bd
       0.0015697799 0.007829798 0.11713897 -0.060005266
000220 77 71 19 bd 00 93 b4 bd 55 72 99 bd 71 44 44 be
       -0.037461724 -0.088171005 -0.0749251 -0.19166733
000230 a5 12 02 3d 37 3a ad 3d f1 9e b1 bd 3b 35 be 3d
       0.031756062 0.08458369 -0.08672894 0.09287497
000240 27 af 7e 3d b8 9b 6e 3d dc 72 fa 3d ff 53 b0 bd
       0.062178757 0.058253974 0.12228939 -0.08609771
000250 f7 82 26 bd ea be 3a 3c 24 36 1c bd 90 1b a9 3c
       -0.04065224 0.0113980565 -0.03813757 0.020643026
000260 c8 35 c9 3c b0 ae a1 bc 1c dd 11 3e f0 bd 30 bd
       0.024561778 -0.019736618 0.14244503 -0.04314989
000270 68 0b bb bd 3e 0e f2 bd cd 1e ad 3d 8e 3e 39 3d
       -0.09133035 -0.11819123 0.084531404 0.045225672
000280 c7 89 9e bd 66 26 79 bd bf 0e 7d 3c 46 c6 a2 3c
       -0.07741123 -0.060827635 0.01544541 0.019869935
000290 26 ab 03 bd ac e9 85 3d c1 cb a1 bd 6e 58 26 3e
       -0.03214564 0.0653871 -0.07900191 0.16244671
0002a0 37 29 11 be d6 82 ef bd 90 1c 92 bd 86 ef 7e 3c
       -0.14175878 -0.11694877 -0.07134354 0.0155600365
0002b0 d2 07 5b bd 22 25 e0 3d cc 63 a9 3c c4 40 b1 bc
       -0.053474255 0.109445825 0.02067747 -0.021637328
0002c0 2f 2a fb bb e0 91 47 bd 2f 44 cf bd f5 3d c0 bd
       -0.007664941 -0.0487231 -0.10120427 -0.09386817
0002d0 18 01 80 bc fe d1 81 bd 46 e0 34 bd 2a 9c cf 3d
       -0.015625522 -0.06338881 -0.044159196 0.10137208
0002e0 8d 0b b2 bd 42 e4 c0 bc 32 5f 52 bd e6 00 ac bd
       -0.086936094 -0.023546342 -0.051360317 -0.08398609
0002f0 bb 43 c8 3d 78 7f 47 bd 5b 38 c3 3d ca cf 84 bd
       0.097785436 -0.048705548 0.09532233 -0.06484945
000300 cc 7f 3c 3d b7 08 14 be 00 8f d7 bb a3 9d b3 bd
       0.046020314 -0.1445645 -0.006578326 -0.08770301
000310 ff a2 ae bc 05 bf fd bd d7 0a a9 3d 1b 42 61 bd
       -0.021317957 -0.1238995 0.08254021 -0.054994684
000320 4e 1c a4 3c 1e 86 7d 3d a8 99 bc bd 28 2d 07 3d
       0.020033028 0.061895482 -0.09208995 0.03300205
000330 1b 3c 00 bd 54 27 e8 3d d0 1f 74 bd 5e a3 d8 bd
       -0.03130732 0.11335626 -0.05960065 -0.10578035
000340 7f 90 f3 bd 00 71 57 bd 53 a8 63 bc 74 e5 7e bd
       -0.11892795 -0.052598 -0.013895112 -0.062230542
000350 b4 7b 29 3d 1a 3e 31 bd 18 c4 cf 3d fa 0e 8b 3d
       0.041377738 -0.043272115 0.10144824 0.06789966
000360 1b b2 9d 3d 0a 9e c5 3d b5 23 1d bd b4 b8 38 3d
       0.076999865 0.09649284 -0.03836413 0.04509802
000370 44 8a 92 bd dd 2a 98 bd 82 6b df bd 50 78 8b bd
       -0.07155278 -0.074300505 -0.10909177 -0.06810057
000380 cc 03 8b 3d c0 04 2c bb 39 7f 12 be f8 b5 2e bd
       0.067878336 -0.0026247948 -0.14306344 -0.042654008
000390 e7 76 1a be 60 5e 8a bb a4 2f 30 bd 3e 1e ab 3d
       -0.1508442 -0.004222676 -0.043014184 0.083553776
0003a0 58 da 4a bd 41 c5 97 3c e8 cb 0f 3d 4d b6 4c 3c
       -0.049524635 0.018526675 0.03510657 0.012494636
0003b0 f2 3e cc bd 3d 2b 1c 3d 3d 42 6d bd 4a 52 49 bd
       -0.09972943 0.038127173 -0.057924498 -0.049150743
0003c0 11 c7 91 bc 2a 30 e1 bd ed 5f aa bc 69 c5 b9 3d
       -0.017795118 -0.10995515 -0.020797694 0.09070856
0003d0 10 06 d0 bd f8 72 c6 bd 30 37 d4 3c 6f e7 9b bd
       -0.10157406 -0.09689897 0.025905222 -0.07612502
0003e0 f0 0a c5 bc 82 a1 20 3d cc 86 50 3d c8 d3 6a bd
       -0.024053067 0.039216526 0.050909802 -0.057330877
0003f0 d7 29 ab 3d 68 74 b0 3c 96 33 ef bd 3d 94 d0 bd
       0.0835759 0.021539882 -0.11679761 -0.10184524

mlp.2.bias f4 [64]
000000 f0 07 2e be b9 7a 10 be 2a d6 1a be 6d 88 3c bd
       -0.16995215 -0.14109315 -0.1512076 -0.046028543
000010 57 b1 9b 3c c4 07 7e 3e 39 7c 0d 3e 84 e5 5c be
       0.01900546 0.2480765 0.13816918 -0.21571928
000020 60 c6 e1 bd e1 7e cd bd 04 a9 88 ba 88 0e db bd
       -0.11024165 -0.10033966 -0.0010426347 -0.10696131
000030 61 f9 5c 3e ba f5 f8 3d 5f 42 02 be 8c 6a ae be
       0.21579506 0.121562436 -0.12720631 -0.34065664
000040 67 23 bb 3b 0f 78 25 bd d3 70 01 be 4b 81 2c 3f
       0.0057110074 -0.0403977 -0.12640695 0.67384785
000050 22 64 54 bb 61 35 ae 3d a2 fe 9e bd 92 64 14 bd
       -0.0032408317 0.08506275 -0.07763411 -0.036228724
000060 74 71 ec bc 6b c4 aa 3d 32 d1 47 be 9e cf 64 bc
       -0.028862692 0.08338245 -0.19513395 -0.013965515
000070 2a 9e 53 bd d4 8a 1e 3e 30 be 05 be 26 1a 40 3d
       -0.05166451 0.15482646 -0.13060832 0.046899937
000080 6b 15 21 be d8 42 35 be c4 80 a5 bd 57 ad 5d 3d
       -0.15730827 -0.1770128 -0.08081201 0.054120388
000090 2a 9f ee bd c7 ae cf b9 70 c7 6e 3d 94 7c f9 bc
       -0.11651452 -0.00039612336 0.058295667 -0.030454911
0000a0 d6 8b b9 bd b2 13 19 3d d0 9f 0c be 16 59 d2 3d
       -0.09059875 0.0373723 -0.13732839 0.10270898
0000b0 09 84 4b bd d9 77 66 be e4 83 04 be 9b 4e ff 3d
       -0.049686465 -0.22506656 -0.12940937 0.12466165
0000c0 71 28 8d ba d8 f0 45 3d a8 68 2f 3f b1 50 58 3d
       -0.0010769499 0.04832539 0.6851907 0.05281133
0000d0 44 e2 1a 3d 56 56 be bc 7f 41 f6 bc 03 09 be bd
       0.03781344 -0.023234528 -0.030060528 -0.092790626
0000e0 15 46 1e 3d 10 47 35 bd df fe 0f be 74 0b 2f 3e
       0.038641054 -0.044257224 -0.1406207 0.17094213
0000f0 1f 97 c8 bd a8 b7 6d be e0 2c 13 3f 27 3f 1f be
       -0.09794449 -0.2321459 0.5749035 -0.15551434

mlp.4.weight f4 [2, 64]
000000 2f 04 f3 3c 50 47 ab 3d 74 ea fd 3d c9 c8 96 3d
       0.02966508 0.08363211 0.12398234 0.073625155
000010 03 2a bd bd 01 28 5b 3d cb be 6d bd ce f9 28 bc
       -0.09236529 0.053504948 -0.058043282 -0.010313464
000020 80 7f b4 bb 4f f8 5b 3d 0f 5d f9 bb 87 b6 eb bd
       -0.0055083632 0.053703602 -0.0076099704 -0.11509424
000030 d6 31 5e 3d 37 b7 0a bb 61 88 d4 3c 36 01 f0 be
       0.054246746 -0.0021166333 0.025943937 -0.46875924
000040 3a f0 c2 3d 1f 8f 88 bd b3 1f 8d 3d c4 59 a9 3e
       0.09518476 -0.06667923 0.06890812 0.33076298
000050 9c 45 38 bc 18 c0 fd 3c 02 f2 93 3d 49 82 26 3d
       -0.011247065 0.030975387 0.07223894 0.040651593
000060 bf 91 3e 3d 39 f7 a3 3c af e9 b5 bd 93 cb 84 bd
       0.046525713 0.020015346 -0.08882462 -0.06484141
000070 c0 14 b6 bd 2d 7e b1 bb a4 b5 16 bd f9 03 cb bd
       -0.088906765 -0.0054166527 -0.03679432 -0.09912867
000080 3e 55 e9 3c 3c ea 32 3e 94 cc 23 3d 0f 2a 5e 3d
       0.02848303 0.17472166 0.039990023 0.05423933
000090 3a 7d b1 3d 69 a0 55 bd db f7 11 3e 4b 33 27 3d
       0.08666463 -0.052154932 0.14254706 0.0408204
0000a0 00 d8 8a 3d 2e 77 2b be 9d a2 dc bd a7 bf b7 bd
       0.0677948 -0.16744682 -0.107732035 -0.08972102
0000b0 4c a1 76 bd 35 d7 a6 3d e7 05 50 3d 45 16 1f bd
       -0.06021242 0.08146516 0.05078688 -0.038839597
0000c0 7c 8a 50 3c 02 45 b5 be 83 37 e6 3e f0 12 0e bd
       0.01272833 -0.3540421 0.44964227 -0.03468603
0000d0 be 4f e8 3d 4e 97 85 bd d2 b5 81 3d 1d d9 ff 3c
       0.113433346 -0.06523 0.063335076 0.031231457
0000e0 8d 87 09 3e 66 9b ae 3b 22 53 a8 bd 0c 7f 1c bd
       0.13430615 0.0053285835 -0.08218981 -0.0382071
0000f0 d8 c8 21 bc 62 27 d9 3c 6a 0c 56 3e f1 eb d9 3c
       -0.009874545 0.026508037 0.20903173 0.026601763
000100 2a ba eb bc 4e 64 a2 3d 01 c6 32 bd 7e 12 5d 3d
       -0.028775293 0.07929288 -0.043645862 0.053972714
000110 76 84 71 3d 68 84 33 3d 54 a4 f3 bc 98 ab 02 3d
       0.058964215 0.043827444 -0.029741444 0.031901926
000120 74 90 23 bd 40 f8 c3 bd a6 11 4c bb 10 82 a2 bd
       -0.039932683 -0.09568834 -0.003113845 -0.07934964
000130 49 58 72 3d cf 01 23 3b d9 29 33 3c 73 24 04 3f
       0.059166227 0.0024872904 0.01093527 0.5161812
000140 1d 9d 10 3e 82 44 d4 3c 50 c2 4c 3d f8 33 8c be
       0.14122434 0.025911573 0.04999 -0.273834
000150 6f d4 bc 3d a0 dd 19 3d 44 61 88 bc e2 62 9b 3d
       0.09220206 0.037564874 -0.016647942 0.0758722
000160 f9 fc 65 3d 04 8e 5f bd f3 4b 10 3d 92 bd 85 3c
       0.056149457 -0.054578796 0.03522868 0.016325746
000170 b1 46 1e 3d 59 70 48 bc 3c 7a 16 3e 0a 7c 11 3b
       0.038641635 -0.012233817 0.14695066 0.0022199177
000180 0e 1b aa 3d 57 97 45 3d 5a 4c 95 bd 04 75 23 3d
       0.083059415 0.048240032 -0.072899535 0.039906517
000190 80 ee 99 ba 06 ee 9d bc 33 45 39 bd 3a 4a 2e be
       -0.0011744052 -0.019278537 -0.04523201 -0.17020503
0001a0 d7 b5 0c be c8 e8 10 3e a2 7b 81 bd 37 99 0d 3d
       -0.13741241 0.14151299 -0.06322409 0.034569945
0001b0 41 08 f4 3d 82 5d 31 3c 19 23 27 be 48 63 83 3d
       0.11915637 0.010825517 -0.16321982 0.06415421
0001c0 46 03 ea bc 40 ff 9e 3e b4 cd c6 be 76 06 05 bd
       -0.028566014 0.31054115 -0.38828814 -0.032476865
0001d0 63 fd d5 bd 88 7c b8 bd 65 fd c5 bb 2e 6f 68 3b
       -0.1044872 -0.090081275 -0.00604217 0.003546666
0001e0 1d 36 7b bd 9d 48 ea ba 07 25 86 bd c2 e5 11 bd
       -0.061330903 -0.0017874424 -0.06550031 -0.035619505
0001f0 e4 c1 d0 3a e5 71 d5 bd c8 2c 4d be e4 fe 4d 3d
       0.0015926925 -0.10422114 -0.20036614 0.05029191

mlp.4.bias f4 [2]
000000 c1 2f f1 3e aa 2a 27 bf
       0.47106746 -0.65299475
